course/week3/fastapi_project/deploy.ckpt (torch, 159806 bytes, 12 tensors)

model.0.weight f4 [16, 784]
0.0126100965 0.0072271563 0.029532973 0.019872066 0.027758364 -0.03391909 -0.01602996 0.02520204
-0.016352445 -0.011235915 -0.017614208 0.027402323 -0.6858734 -0.69701165 0.21264747 0.11208245
0.011899367 0.0022192001 -0.023986354 -0.02671694 0.017105047 0.0212817 -0.028553376 0.005392581
0.028930012 0.03358573 -0.029503023 0.030177806 -0.025149116 0.03258792 0.018749628 -0.025035791
-0.11111451 -0.29866928 -0.23967892 -0.25887063 -0.39870575 -0.35844108 -0.6325857 -0.9290221
-1.3965908 -1.877056 -0.65181834 -0.68677235 -0.5749837 -1.1113312 -1.1291211 -1.0567822
-1.2445264 -1.0456418 -0.6066388 -0.56314737 0.014589064 -0.018422715 0.023651764 0.020869873
-0.023715353 0.02192273 -0.48202118 -0.23816545 -0.6135737 -0.37810037 -0.32160535 -0.85240316
-1.0844475 -1.2343336 -1.7415379 -0.573503 -0.20875542 -0.12960944 -0.2534126 -0.37765387
-0.3793358 -0.33769014 -0.6666971 -0.8784801 -0.378442 -0.15398638 -0.1643593 -0.011626123
0.56297266 0.26067713 0.0036587082 0.002307333 0.01749862 -0.0107299145 0.1728734 -0.4588587
-0.9426736 -1.241255 -1.3247919 -2.0353215 -1.9530311 -1.434292 -0.79683095 -0.19907884
-0.34128726 -0.35278136 0.5621932 0.38882273 0.4789927 0.23612739 0.12063843 -0.10534925
-0.34742716 -0.64446515 -1.0785495 -1.7535639 -1.3263412 -0.27283603 -0.59832954 -0.024363795
-0.025176845 0.26230794 0.7630892 0.40850088 -0.8753244 -0.7646868 -1.2058463 -0.53412634
-0.10176114 -0.021339722 -0.12937775 0.029809415 -0.068484314 0.006867257 0.003975586 0.4485432
0.6275909 0.5492222 0.53849024 0.5204779 0.20465265 -0.30804694 -0.17054313 -1.6571356
-0.26507717 -0.58421195 -0.2927374 -0.117572956 0.017007496 0.019667026 0.61572397 0.55695546
-0.28414094 -0.8532359 -0.196236 -0.019828247 -0.29948753 -0.31831238 -0.48278853 -0.07926719
-0.015470654 -0.31296197 -0.41901144 0.020473994 0.33886856 0.12952183 0.2570779 0.43641883
0.49651146 0.31365287 0.49738792 0.5227845 -0.61421907 0.13747449 -0.46725294 -0.017602619
0.032483142 1.0937151 0.40048316 0.28894922 0.12296889 0.4620452 -0.35622162 -0.23837964
0.09862609 0.2900641 0.04564727 -0.4093075 -0.36459965 -0.068012245 -0.20098639 0.06470078
0.15476051 -0.0730294 -0.12601553 0.18679422 0.3153194 0.13771993 0.0390056 0.21817406
-0.9088137 -0.72054213 -0.16977745 -0.61008275 -0.026985975 1.3021449 -0.30640513 1.2068149
1.0770553 1.0153427 0.43760532 0.3792548 0.1552521 0.28135678 -0.12014032 0.081919886
-0.14634226 -0.36130786 -0.31984207 0.00570157 0.20803265 0.0030497832 -0.10209214 0.38009328
0.5453077 0.32546782 0.47288334 -0.111864544 -0.53683436 -1.7470074 -0.722105 -0.5770744
-0.11558394 0.47371435 0.6418617 0.9366038 1.3475677 0.78446466 0.43473667 0.4130578
-0.08678189 0.17576665 0.1746157 0.08512818 -0.1375216 -0.5403758 -0.64517206 -0.08906454
-0.012766572 0.28888124 0.35914907 0.43692628 0.32699227 0.5253941 0.29533312 -0.6513106
-2.0282435 -1.7657269 -0.7992207 0.10994737 -0.07788088 -0.32619688 1.2515503 0.9209769
00000000: 949a 4e3c c8d1 ec3b 22ef f13c beca a23c
00000010: 8265 e33c beee 0abd 4351 83bc 8274 ce3c
00000020: 90f5 85bc d816 38bc ac4b 90bc d67a e03c
00000030: 6695 2fbf 5b6f 32bf 42c0 593e 7c8b e53d
00000040: 90f5 423c 0070 113b 087f c4bc 7cdd dabc
00000050: e21f 8c3c f656 ae3c c5e8 e9bc 40b4 b03b
00000060: a2fe ec3c 3191 093d 53b0 f1bc 7237 f73c
00000070: 8505 cebc e97a 053d d298 993c dc17 cdbc
00000080: 0190 e3bd 2eeb 98be 646e 75be b18a 84be
00000090: 2923 ccbe 9785 b7be 23f1 21bf 64d4 6dbf
000000a0: 7dc3 b2bf 5f43 f0bf 91dd 26bf 50d0 2fbf
000000b0: 2232 13bf 1a40 8ebf 0a87 90bf a444 87bf
000000c0: a44c 9fbf 97d7 85bf ae4c 1bbf 6d2a 10bf
000000d0: f806 6f3c 3ceb 96bc 58c1 c13c 4cf7 aa3c
000000e0: b346 c2bc 4c97 b33c 7bcb f6be a5e1 73be
000000f0: 2a13 1dbf 5f96 c1be 75a9 a4be 1837 5abf
00000100: 2dcf 8abf a5fe 9dbf b7ea debf 18d1 12bf
00000110: fbc3 55be 56b8 04be 4cbf 81be d95b c1be
00000120: 4d38 c2be b9e5 acbe a9ac 2abf 12e4 60bf
00000130: 26c3 c1be 9bae 1dbe ce4d 28be 7f7b 3ebc
00000140: fa1e 103f 7977 853e f0c6 6f3b a036 173b
00000150: 4459 8f3c 86cc 2fbc b905 313e 87ef eabe
00000160: 0f53 71bf 72e1 9ebf c892 a9bf b542 02c0
00000170: ecfc f9bf e196 b7bf 1dfd 4bbf 53db 4bbe
00000180: 34bd aebe c29f b4be e5eb 0f3f c613 c73e
00000190: 883e f53e 61cb 713e 4811 f73d 59c1 d7bd
000001a0: f9e1 b1be abfb 24bf e90d 8abf c874 e0bf
000001b0: 8cc5 a9bf 2ab1 8bbe 202c 19bf 9596 c7bc
000001c0: ac3f cebc 3a4d 863e d059 433f 0727 d13e
000001d0: 4315 60bf 84c2 43bf 2c59 9abf 81bc 08bf
000001e0: 2568 d0bd a4d0 aebc 9a7b 04be e032 f43c
000001f0: 8141 8cbd ba06 e13b a245 823b 74a7 e53e
00000200: cca9 203f d399 0c3f 7fda 093f 0a3e 053f
00000210: 7790 513e 54b8 9dbe dca2 2ebe 051d d4bf
00000220: 32b8 87be ea8e 15bf ade1 95be 17ca f0bd
00000230: 4e53 8b3c be1c a13c 16a0 1d3f a294 0e3f
00000240: ec7a 91be ab6d 5abf 17f2 48be d96e a2bc
00000250: 6e56 99be d7f9 a2be 0f30 f7be d656 a2bd
00000260: a078 7dbc 8d3c a0be ab88 d6be 14b9 a73c
00000270: 2e80 ad3e 5fa1 043e b79f 833e 4a72 df3e
00000280: c036 fe3e 1c97 a03e a1a9 fe3e 34d5 053f
00000290: 763d 1dbf 1dc6 0c3e c73b efbe 5e33 90bc
000002a0: 0b0d 053d dbfe 8b3f 210c cd3e 27f1 933e
000002b0: 1dd7 fb3d 3091 ec3e ae62 b6be cb19 74be
000002c0: 7afc c93d 4883 943e a2f8 3a3d c190 d1be
000002d0: ceac babe 014a 8bbd 60cf 4dbe d881 843d
000002e0: 8a79 1e3e 7090 95bd 370a 01be fc46 3f3e
000002f0: 8b71 a13e 7406 0d3e 56c4 1f3d 0569 5f3e
00000300: 04a8 68bf 7375 38bf 24da 2dbe 622e 1cbf
00000310: b111 ddbc afac a63f 22e1 9cbe e978 9a3f
00000320: f3dc 893f c0f6 813f ce0d e03e af2d c23e
00000330: 68fa 1e3e ff0d 903e 210c f6bd 9dc5 a73d
00000340: bfda 15be 58fd b8be 57c2 a3be 3cd4 ba3b
00000350: 8306 553e dfde 473b af15 d1bd 969b c23e
00000360: 4999 0b3f b8a3 a63e c41d f23e 3d19 e5bd
00000370: fa6d 09bf f09d dfbf e0db 38bf 26bb 13bf
00000380: 46b7 ecbd b08a f23e 0c51 243f 44c5 6f3f
00000390: 197d ac3f add2 483f ce95 de3e 507c d33e
000003a0: b4ba b1bd 2cfc 333e 75ce 323e af57 ae3d
000003b0: 76d2 0cbe 1256 0abf ff29 25bf 7867 b6bd
000003c0: e22a 51bc 3ee8 933e 63e2 b73e cdb4 df3e
000003d0: 886b a73e 3a80 063f e735 973e 4bbc 26bf
000003e0: bece 01c0 5703 e2bf ba99 4cbf 162c e13d
000003f0: 0380 9fbd 4703 a7be cd32 a03f 24c5 6b3f

model.0.bias f4 [16]
-0.19359142 0.18507288 1.1874682 -0.037821915 -0.8798336 0.36118466 1.2767057 -0.08017687
0.2000571 0.57578075 0.1893845 -0.034650598 -0.29638663 -0.4345343 0.51026076 0.21755245
00000000: d43c 46be bf83 3d3e f5fe 973f 27eb 1abd
00000010: c63c 61bf 32ed b83e 186b a33f c533 a4bd
00000020: c5db 4c3e 5e66 133f 03ee 413e c9ed 0dbd
00000030: fdbf 97be 487b debe 73a0 023f 12c6 5e3e

model.2.weight f4 [10, 16]
-0.4608188 0.15692812 -0.6192164 -0.22352423 -0.26778948 -0.31436703 -0.623822 0.28681487
0.53763276 -1.5854205 0.35704878 -0.19343337 -0.14841294 0.3168051 -0.13441144 -0.6849396
0.23504364 0.6743492 -0.34016162 0.13434997 0.41262215 -0.007977875 0.14836976 0.26294363
-0.76678216 -0.0113841705 -0.26209638 -0.04091141 -1.4709074 -0.095376074 0.06716523 0.288941
0.3464368 0.17333046 -0.03923945 0.21202081 0.3861506 0.26365843 -0.7970006 -0.03657686
-0.33923993 0.55922335 0.08592071 0.014967619 -0.40636653 0.3901783 0.32282406 -0.32807058
0.44633424 -0.57388765 -0.11377149 -0.020757983 0.07683806 -0.10136131 -0.23212278 -0.38893563
-0.09801331 0.22205472 -0.14997588 -0.2053031 0.00053707144 0.2504047 0.5476212 0.37290704
0.19091706 0.60067385 0.2803965 0.05795837 -0.34587288 0.017373096 0.19079061 0.30885097
-0.77969235 -0.7784646 0.13036054 0.10844328 -0.05438711 -1.8518617 0.080024906 0.08051006
-0.51741546 -0.93976223 0.09102209 -0.14258213 -0.18156934 -0.033979826 0.3513406 -0.9052392
0.20368469 0.20707804 0.19355324 0.1827767 0.22222583 0.23553774 0.28441817 -0.037441727
-0.6797641 0.08943494 -1.1699128 -0.13059302 0.31221768 -0.43930167 0.6102505 0.17505993
-0.038120024 -0.41242388 0.35667077 0.16966616 0.18370344 -0.57189685 0.32317796 -1.1276828
0.20162569 0.6276498 0.53021383 0.15361837 -0.037822776 -0.535244 -0.4587237 0.22154659
-0.22945787 0.491283 -0.7022409 0.12572172 -0.16814828 -0.13838759 -0.038999952 0.13655964
-0.28821385 -0.15623711 0.05378589 -0.20509493 0.2745593 -0.23950046 -0.10108687 0.036786076
0.09096664 -0.30491894 0.3539602 0.24194862 0.061199386 -0.16345352 -0.39468038 0.18917716
-0.5548664 0.05496857 0.055354156 0.09647991 -0.74033177 0.2878649 0.08151582 0.36364505
-0.046639368 -0.75130403 -0.15861708 0.14765716 0.33540252 -0.29382664 -0.6498241 0.19416429
00000000: 71f0 ebbe c4b1 203e f784 1ebf 89e3 64be
00000010: b41b 89be b7f4 a0be ccb2 1fbf 66d9 923e
00000020: 4da2 093f 0fef cabf 19cf b63e 6613 46be
00000030: 90f9 17be 4734 a23e 27a3 09be 3458 2fbf
00000040: 48af 703e 26a2 2c3f aa29 aebe 0a93 093e
00000050: 3643 d33e a2b5 02bc 3eee 173e 8ca0 863e
00000060: d64b 44bf ac84 3abc 7f31 86be b992 27bd
00000070: b246 bcbf 8854 c3bd ed8d 893d 13f0 933e
00000080: 2a60 b13e 8a7d 313e 8cb9 20bd fc1b 593e
00000090: 88b5 c53e 3dfe 863e 3b08 4cbf 9ed1 15bd
000000a0: dbb0 adbe 4329 0f3f 32f7 af3d bf3a 753c
000000b0: 460f d0be 73c5 c73e 3249 a53e def8 a7be
000000c0: ec85 e43e 4dea 12bf 0701 e9bd a50c aabc
000000d0: 465d 9d3d 8596 cfbd 98b1 6dbe 9222 c7be
000000e0: 34bb c8bd 5062 633e 4793 19be fa3a 52be
000000f0: 41ca 0c3a 0b35 803e e730 0c3f aced be3e
00000100: c37f 433e c3c5 193f 2190 8f3e c165 6d3d
00000110: 4016 b1be 0652 8e3c 9d5e 433e b721 9e3e
00000120: eb99 47bf 7549 47bf 3c7d 053e 8317 de3d
00000130: 05c5 5ebd ce09 edbf 19e4 a33d 75e2 a43d
00000140: 5775 04bf 4294 70bf ca69 ba3d 0d01 12be
00000150: 50ed 39be 6e2e 0bbd eae2 b33e c2bd 67bf
00000160: b892 503e 440c 543e d232 463e d129 3b3e
00000170: 2b8f 633e ce30 713e 429f 913e 7f5c 19bd
00000180: 0505 2ebf aa29 b73d b4bf 95bf 2dba 05be
00000190: ffda 9f3e 26ec e0be 6039 1c3f e942 333e
000001a0: be23 1cbd 3929 d3be 8d9d b63e f7bc 2d3e
000001b0: c11c 3c3e d567 12bf 9577 a53e e957 90bf
000001c0: f776 4e3e a8ad 203f 18bc 073f 224e 1d3e
000001d0: 0eec 1abd c005 09bf d5dd eabe 1cdd 623e
000001e0: 01f7 6abe 7289 fb3e 0fc6 33bf 32bd 003e
000001f0: 102f 2cbe 7ab5 0dbe 6abe 1fbd 4ad6 0b3e
00000200: c490 93be 9ffc 1fbe 984e 5c3d 6804 52be
00000210: 0993 8c3e 9c3f 75be a206 cfbd ffac 163d
00000220: b84c ba3d 561e 9cbe 453a b53e 61c1 773e
00000230: 35ac 7a3d 5c60 27be 8c13 cabe a8b7 413e
00000240: b90b 0ebf b926 613d 0abb 623d 4297 c53d
00000250: 6286 3dbf 0763 933e c4f1 a63d af2f ba3e
00000260: ec08 3fbd 7655 40bf 846c 22be 7033 173e
00000270: e1b9 ab3e 7270 96be df5a 26bf 01d3 463e

model.2.bias f4 [10]
-0.4304074 0.7252584 -0.869543 -0.803471 0.32789007 1.0842285 0.17915684 -0.047066905
-0.8079072 0.382515
00000000: 5c5e dcbe 89aa 393f 5f9a 5ebf 47b0 4dbf
00000010: 35e1 a73e 00c8 8a3f e474 373e 3ac9 40bd
00000020: 02d3 4ebf 02d9 c33e

exp_avg f4 [16, 784]
0.0 0.0 0.0 0.0 0.0 0.0 0.0 0.0
0.0 0.0 0.0 0.0 6e-45 6e-45 -6e-45 -6e-45
0.0 0.0 0.0 0.0 0.0 0.0 0.0 0.0
0.0 0.0 0.0 0.0 0.0 0.0 0.0 0.0
6e-45 6e-45 6e-45 6e-45 6e-45 -9.045612e-32 1.8286763e-28 2.3085424e-28
9.4938014e-17 3.8644697e-17 1.5371081e-15 2.7997327e-15 5.2976032e-15 1.51293e-14 3.7965707e-15 1.5946706e-11
1.8172212e-11 6.2949884e-15 2.3322464e-33 6e-45 0.0 0.0 0.0 0.0
0.0 0.0 5.1157942e-36 1.34552974e-36 6e-45 1.6764985e-20 1.4243969e-17 7.4511047e-20
-5.0732857e-21 -1.2886677e-05 -2.277408e-05 -2.3361457e-05 -2.5579195e-05 -2.5320132e-05 -2.3454682e-05 -1.7004031e-05
-2.1683059e-06 7.916546e-06 -5.685016e-05 -2.182685e-05 -4.091554e-05 -7.8452744e-05 -5.8179307e-05 7.936846e-09
2.7418192e-09 6.79991e-40 0.0 0.0 0.0 0.0 1.12707215e-35 -3.7503944e-25
-1.0240394e-19 -4.0193016e-11 6.483322e-10 8.4655545e-09 -1.8598674e-07 -1.8095204e-06 -2.5884956e-05 -4.5677672e-05
0.00016748406 0.0009691358 0.0009138563 0.001100093 0.0015492169 0.0015522003 0.00082732155 0.000121609264
-1.266605e-05 -3.985622e-05 -7.475379e-06 4.7927997e-06 1.9842115e-09 4.659795e-18 2.417212e-39 0.0
0.0 -2.1807784e-33 1.7583797e-35 -6.5631926e-25 -6.5316097e-10 -2.3517732e-06 -2.9538056e-05 -6.150227e-05
-0.0001250316 -0.00046659456 -0.0002505635 0.0005059613 0.0019079321 0.001798227 0.0015088235 0.0020689992
0.0030753256 0.00253506 0.0021269466 0.0014972046 0.00090629264 -0.00011089454 -0.00015123514 -2.5471852e-05
-7.115919e-07 -2.627782e-10 3.37406e-40 6e-45 0.0 0.0 -9.1774455e-09 5.0744696e-08
-8.207503e-07 -9.459006e-07 -6.0292303e-05 2.1041129e-05 -1.1459232e-05 0.00032829508 0.0005202362 0.0010188804
0.0023096693 0.0021528646 0.0023071547 0.0021774492 0.0032691439 0.0027665843 0.0026533285 0.0023637721
0.0014701386 0.0004931445 -0.00022238592 -0.00013164287 -8.6377474e-07 5.5435017e-09 5.628226e-10 0.0
0.0 -9.993738e-10 4.2930556e-06 2.3098533e-05 9.906312e-06 -1.0186849e-06 -1.0347264e-05 0.0001538587
0.0005082269 0.0007136572 -0.00025633938 -0.0004037318 0.0018125989 0.004247972 0.0031593326 0.0018495816
0.0013564905 0.0025107297 0.0022133084 0.0011243818 0.0012363284 0.00052813336 -3.9961407e-05 -0.00017209862
0.00012039725 6.549756e-09 1.1256452e-09 6e-45 6e-45 -7.9949904e-09 1.9910196e-05 2.3006294e-05
2.0133426e-05 0.00010223702 0.000330042 0.0005196436 0.0008733352 2.470856e-05 -0.0007581888 0.00090317975
0.0040242295 0.0036530767 0.0019963805 0.0009814833 0.0014085936 0.0021184713 0.0016601199 -0.00020175695
0.0012827785 0.0012255867 -9.3163384e-05 -0.00017795371 9.187231e-05 5.5308713e-10 -5.1433144e-31 6e-45
6e-45 5.7274403e-18 3.4132374e-06 1.9389863e-05 7.131649e-05 0.0006205697 0.00043679602 0.0007184189
0.0007056573 -0.00031490953 -0.00038107752 0.0030983528 0.0027175578 0.0014556085 0.00045855102 0.0015093811
0.0013110554 0.0022588072 0.001155096 0.00046228492 0.0016271527 0.0012050772 -0.00018166026 -0.00029382395
6.8320514e-05 1.2543652e-09 6e-45 6e-45 6e-45 1.6022113e-10 1.7411548e-08 5.5186906e-08
00000000: 0000 0000 0000 0000 0000 0000 0000 0000
00000010: 0000 0000 0000 0000 0000 0000 0000 0000
00000020: 0000 0000 0000 0000 0000 0000 0000 0000
00000030: 0400 0000 0400 0000 0400 0080 0400 0080
00000040: 0000 0000 0000 0000 0000 0000 0000 0000
00000050: 0000 0000 0000 0000 0000 0000 0000 0000
00000060: 0000 0000 0000 0000 0000 0000 0000 0000
00000070: 0000 0000 0000 0000 0000 0000 0000 0000
00000080: 0400 0000 0400 0000 0400 0000 0400 0000
00000090: 0400 0000 67d6 ea8b f0cf 6711 3e52 9211
000000a0: 83e9 da24 9b37 3224 4885 dd26 f4bd 4927
000000b0: c4dd be27 ca45 8828 2fc9 8827 ca44 8c2d
000000c0: 2fd8 9f2d 05cd e227 65c1 4109 0400 0000
000000d0: 0000 0000 0000 0000 0000 0000 0000 0000
000000e0: 0000 0000 0000 0000 119a d904 16ee e403
000000f0: 0400 0000 3f57 9e1e 9f60 8323 2aef af1f
00000100: cfa9 bf9d db33 58b7 f70a bfb7 59f8 c3b7
00000110: e792 d6b7 9266 d4b7 8cc0 c4b7 e1a3 8eb7
00000120: 3683 11b6 4ed1 0437 6572 6eb8 ce18 b7b7
00000130: ba9c 2bb8 ff86 a4b8 8e05 74b8 9e5a 0832
00000140: 986a 3c31 8a67 0700 0000 0000 0000 0000
00000150: 0000 0000 0000 0000 a5b3 6f05 5f23 e896
00000160: 62cb f19f 50c5 30ae 5336 3230 e76f 1132
00000170: a5b3 47b4 a6de f2b5 8523 d9b7 0796 3fb8
00000180: a99e 2f39 9a0d 7e3a dc8f 6f3a ff30 903a
00000190: 180f cb3a 3373 cb3a 9ce0 583a 7a08 ff38
000001a0: 4580 54b7 4a2b 27b8 04d5 fab6 d6d1 a036
000001b0: 9e5a 0831 85ea ab22 3452 1a00 0000 0000
000001c0: 0000 0000 072c 3589 a6fb ba05 f81e 4b97
000001d0: 1e8a 33b0 28d3 1db6 7ec8 f7b7 c8fa 80b8
000001e0: ea1a 03b9 43a1 f4b9 105e 83b9 7da2 043a
000001f0: 9413 fa3a 7cb2 eb3a b7c3 c53a 0c98 073b
00000200: 678b 493b 4023 263b 3e64 0b3b da3d c43a
00000210: 4594 6d3a 0e90 e8b8 e094 1eb9 63ac d5b7
00000220: 3904 3fb5 be76 90af 8dac 0300 0400 0000
00000230: 0000 0000 0000 0000 d5aa 1db2 62f2 5933
00000240: 8851 5cb5 cbe9 7db5 5ee2 7cb8 7b81 b037
00000250: 0741 40b7 051f ac39 7660 083a f48b 853a
00000260: d25d 173b 1317 0d3b a233 173b 89b3 0e3b
00000270: 223f 563b 954f 353b 77e3 2d3b 84e9 1a3b
00000280: aab1 c03a 5e46 013a 4430 69b9 9d09 0ab9
00000290: 26de 67b5 2879 be31 1fb5 1a30 0000 0000
000002a0: 0000 0000 575a 89b0 110d 9036 b9c3 c137
000002b0: 4933 2637 bfb9 88b5 2999 2db7 2155 2139
000002c0: 883a 053a b914 3b3a 4a65 86b9 f7ab d3b9
000002d0: ba94 ed3a 9232 8b3b ce0c 4f3b a96d f23a
000002e0: 45cc b13a 0e8b 243b 270d 113b fe5f 933a
000002f0: 4c0c a23a 6e72 0a3a 3c9c 27b8 5f75 34b9
00000300: c87d fc38 430c e131 1fb5 9a30 0400 0000
00000310: 0400 0000 575a 09b2 d204 a737 a4fd c037
00000320: 34e4 a837 1568 d638 7d09 ad39 b138 083a
00000330: 88f0 643a 3b45 cf37 30c1 46ba 5ec3 6c3a
00000340: afdd 833b 7568 6f3b b5d5 023b 1da5 803a
00000350: 8fa0 b83a 0dd6 0a3b 6198 d93a b88e 53b9
00000360: e722 a83a dea3 a03a b660 c3b8 1699 3ab9
00000370: 92ab c038 0c08 1830 fce8 268d 0400 0000
00000380: 0400 0000 254e d322 f90e 6536 6aa7 a237
00000390: c08f 9538 baad 223a c501 e539 4754 3c3a
000003a0: dcfb 383a 711a a5b9 5ccb c7b9 bc0d 4b3b
000003b0: 0e19 323b 1eca be3a ad69 f039 6dd6 c53a
000003c0: b8d7 ab3a 7f08 143b 9766 973a d55e f239
000003d0: 2f46 d53a aef3 9d3a 0e7c 3eb9 620c 9ab9
000003e0: 4c47 8f38 0d66 ac30 0400 0000 0400 0000
000003f0: 0400 0000 3d2a 302f 6690 9532 a506 6d33

exp_avg_sq f4 [16, 784]
0.0 0.0 0.0 0.0 0.0 0.0 0.0 0.0
0.0 0.0 0.0 0.0 1.3612786e-13 6.5516115e-13 2.5119088e-15 4.3609586e-18
0.0 0.0 0.0 0.0 0.0 0.0 0.0 0.0
0.0 0.0 0.0 0.0 0.0 0.0 0.0 0.0
2.1172422e-19 4.1447077e-16 1.5892646e-13 2.5566878e-13 3.94303e-13 1.5771922e-12 1.0536051e-12 2.7778064e-12
1.1857293e-09 6.4366776e-12 2.6430047e-09 1.17338965e-08 3.0540146e-08 1.7754013e-08 5.676998e-10 3.866279e-12
3.9063495e-09 4.3722792e-08 3.0252675e-10 2.565428e-13 0.0 0.0 0.0 0.0
0.0 0.0 1.0187731e-16 1.0284732e-15 1.6328794e-13 5.5328654e-15 3.6104493e-13 1.6931517e-12
2.6955788e-11 2.1097522e-07 8.661205e-07 8.5029455e-07 1.1176433e-06 1.4799416e-06 1.2296831e-06 6.0393154e-07
5.536786e-07 6.5060993e-07 1.1421102e-06 5.052022e-07 3.6814208e-07 1.9963254e-07 3.9527464e-08 3.230764e-10
9.47713e-11 1.2009535e-11 0.0 0.0 0.0 0.0 4.7619016e-13 4.5111016e-12
1.3955205e-09 4.5398307e-09 1.5745432e-08 1.043595e-07 2.6511205e-07 6.4363957e-07 1.3787542e-06 1.363904e-06
2.6814148e-06 4.8681927e-06 5.2425016e-06 5.4502375e-06 6.576336e-06 7.286465e-06 6.951725e-06 4.5217043e-06
2.791288e-06 1.7602799e-06 5.270889e-07 6.428841e-08 1.0286276e-08 2.7548902e-10 5.796716e-10 0.0
0.0 2.8521762e-18 1.5343443e-10 6.8798266e-11 2.4219645e-08 4.116126e-07 1.8485757e-07 6.636946e-07
1.5728717e-06 2.889568e-06 3.434605e-06 5.113559e-06 9.360118e-06 1.527427e-05 2.2845132e-05 2.6967586e-05
2.8838285e-05 2.7518452e-05 2.1604465e-05 1.7452698e-05 1.3022612e-05 7.4899576e-06 3.0729957e-06 7.247274e-07
1.4288138e-07 6.6984858e-09 1.1473678e-11 6.461589e-16 0.0 0.0 1.6667202e-11 1.1270126e-09
9.299697e-08 6.4157774e-07 9.495102e-07 2.5035174e-06 5.1948123e-06 9.600563e-06 1.5410045e-05 2.1937147e-05
3.3176315e-05 4.838142e-05 5.811826e-05 6.338289e-05 6.0906532e-05 5.5630124e-05 4.9430226e-05 4.022579e-05
2.8312143e-05 1.6165865e-05 7.432484e-06 2.5145673e-06 5.0139454e-07 3.0581823e-08 7.1821e-09 0.0
0.0 2.9060105e-11 1.27973765e-08 2.7991003e-08 3.1091324e-07 8.4443246e-07 2.6428036e-06 6.9930793e-06
1.3449158e-05 2.3511811e-05 3.7894122e-05 5.1249757e-05 6.48365e-05 7.432986e-05 7.622074e-05 7.995418e-05
7.958391e-05 7.2673065e-05 6.523724e-05 5.782238e-05 4.1877098e-05 2.3016713e-05 1.0934484e-05 5.0092194e-06
1.5721452e-06 5.2995006e-08 2.0194288e-09 3.9390696e-10 3.3392254e-20 1.2316297e-08 3.7258796e-09 1.059532e-07
8.232639e-07 2.4990072e-06 6.6157772e-06 1.4945194e-05 2.4497615e-05 4.1914333e-05 5.535739e-05 6.191277e-05
6.912758e-05 6.9801106e-05 6.964722e-05 7.4285395e-05 8.1244885e-05 7.543127e-05 6.7743844e-05 5.8713536e-05
4.677594e-05 2.5287325e-05 1.1922194e-05 4.8381585e-06 9.3883517e-07 1.8637098e-07 9.830472e-10 1.6530219e-10
8.688445e-15 1.00585346e-10 7.43669e-09 2.4386617e-07 1.3256906e-06 4.9878718e-06 1.156821e-05 2.2025326e-05
3.2631822e-05 4.755207e-05 5.466225e-05 5.67975e-05 5.7240708e-05 5.4796365e-05 5.5650587e-05 6.38816e-05
7.596329e-05 7.473864e-05 6.871668e-05 6.0832655e-05 4.9265414e-05 2.979614e-05 1.4142196e-05 6.407014e-06
7.370654e-07 1.8197284e-07 2.5873748e-11 2.603434e-14 1.8664141e-19 6.376222e-14 1.8694823e-08 4.57071e-07
00000000: 0000 0000 0000 0000 0000 0000 0000 0000
00000010: 0000 0000 0000 0000 0000 0000 0000 0000
00000020: 0000 0000 0000 0000 0000 0000 0000 0000
00000030: 2f44 192a 5669 382b 8a00 3527 17e4 a022
00000040: 0000 0000 0000 0000 0000 0000 0000 0000
00000050: 0000 0000 0000 0000 0000 0000 0000 0000
00000060: 0000 0000 0000 0000 0000 0000 0000 0000
00000070: 0000 0000 0000 0000 0000 0000 0000 0000
00000080: b8f5 7920 17ed ee25 6fef 322a c1ed 8f2a
00000090: 0df9 dd2a 56f8 dd2b 2048 942b 8378 432c
000000a0: 24f7 a230 7078 e22c 3ba0 3531 3996 4932
000000b0: 3f2b 0333 7d81 9832 520c 1c30 5808 882c
000000c0: 9d38 8631 b8c9 3b33 db50 a62f b76b 902a
000000d0: 0000 0000 0000 0000 0000 0000 0000 0000
000000e0: 0000 0000 0000 0000 c0e9 ea24 f737 9426
000000f0: 8bd8 372a ad57 c727 0f40 cb2a 384a ee2b
00000100: 0a1b ed2d 6d88 6234 597f 6835 cc3f 6435
00000110: ee01 9635 68a2 c635 970b a535 dc1d 2235
00000120: 81a0 1435 93a5 2e35 9c4a 9935 3b9d 0735
00000130: 10a5 c534 935a 5634 e8c4 2933 f69c b12f
00000140: 8067 d02e 2346 532d 0000 0000 0000 0000
00000150: 0000 0000 0000 0000 1e09 062b 64b8 9e2c
00000160: 83cc bf30 c6fc 9b31 9240 8732 3e1c e033
00000170: b954 8e34 93c6 2c35 a20d b935 620f b735
00000180: 5bf2 3336 7559 a336 bfe8 af36 2fe1 b636
00000190: 4caa dc36 427e f436 dd42 e936 25b9 9736
000001a0: f651 3b36 c242 ec35 467d 0d35 ed0e 8a33
000001b0: 85b7 3032 a273 972f c356 1f30 0000 0000
000001c0: 0000 0000 1674 5222 f4b3 282f fb49 972e
000001d0: 900b d032 9bfb dc34 437d 4634 bf28 3235
000001e0: 761b d335 66ea 4136 117e 6636 2395 ab36
000001f0: 6709 1d37 3f21 8037 8ca3 bf37 7338 e237
00000200: bfe9 f137 6dd7 e637 3c3b b537 6267 9237
00000210: b17b 5a37 3f52 fb36 aa39 4e36 e38a 4235
00000220: ef6a 1934 8128 e631 dad8 492d 1d3e 3a26
00000230: 0000 0000 0000 0000 349b 922d 3be5 9a30
00000240: a0b5 c733 e338 2c35 d8e1 7e35 1a02 2836
00000250: 194f ae36 1b12 2137 d244 8137 aa05 b837
00000260: cc26 0b38 27ed 4a38 02c4 7338 6eec 8438
00000270: e475 7f38 6454 6938 4d53 4f38 1db8 2838
00000280: dd7f ed37 ee9b 8737 8d64 f936 f0bf 2836
00000290: 9297 0635 1259 0333 6bc6 f631 0000 0000
000002a0: 0000 0000 8a9d ff2d 75db 5b32 de70 f032
000002b0: 97eb a634 f5ac 6235 055b 3136 18a6 ea36
000002c0: b2a3 6137 3b3b c537 81f0 1e38 02f5 5638
000002d0: d5f8 8738 8ae1 9b38 b3d8 9f38 13ad a738
000002e0: 49e6 a638 0e68 9838 facf 8838 4f86 7238
000002f0: 31a5 2f38 0414 c137 4073 3737 de14 a836
00000300: 7f02 d335 a09c 6333 2bc6 0a31 7a8d d82f
00000310: c2b0 1d1f a697 5332 2f05 8031 6388 e333
00000320: 44fe 5c35 9eb4 2736 18fd dd36 1fbd 7a37
00000330: 3a80 cd37 2ccd 2f38 8b2f 6838 2ad7 8138
00000340: 96f8 9038 2f62 9238 910f 9238 abc9 9b38
00000350: 0462 aa38 db30 9e38 b311 8e38 2e43 7638
00000360: 4831 4438 1e20 d437 6f05 4837 7757 a236
00000370: 4304 7c35 441d 4834 e61b 8730 6ec0 352f
00000380: 6184 1c28 8430 dd2e d185 ff31 b6ec 8234
00000390: 62ee b135 7e5d a736 1515 4237 07c3 b837
000003a0: 27de 0838 a572 4738 2545 6538 da39 6e38
000003b0: be15 7038 26d5 6538 5d6a 6938 2cf8 8538
000003c0: 7b4e 9f38 00bd 9c38 fd1b 9038 9126 7f38
000003d0: 56a2 4e38 b9f2 f937 4544 6d37 d5fb d636
000003e0: c0da 4535 5064 4334 8096 e32d 1a7f ea28
000003f0: e858 5c20 6b94 8f29 5a96 a032 5c63 f534

exp_avg f4 [16]
0.002609155 0.00017195336 0.0005887935 6e-45 0.003440716 0.0032510997 -0.0021224576 -0.00087928254
-0.0033735654 0.0032447656 -0.0007588105 6e-45 -0.00085174915 0.008647516 -0.0019240107 0.00038908568
00000000: 5bfe 2a3b 614e 3439 4359 1a3a 0400 0000
00000010: a37d 613b 6710 553b ee18 0bbb a77f 66ba
00000020: 0917 5dbb 22a6 543b e9ea 46ba 0400 0000
00000030: eb47 5fba 50ae 0d3c 162f fcba 32fe cb39

exp_avg_sq f4 [16]
0.00020994233 0.00018454289 0.00019569843 1.2893868e-13 0.00019947713 9.7465214e-05 0.00014378864 0.00024413886
0.00015211984 0.00019787926 0.00021092805 7.4798116e-13 0.00031249615 0.00030681447 0.0001500974 0.00024524127
00000000: f723 5c39 db81 4139 6634 4d39 0b2c 112a
00000010: bc2a 5139 3d66 cc38 f8c5 1639 87ff 7f39
00000020: 5c82 1f39 cf7d 4f39 912c 5d39 b989 522b
00000030: 86d6 a339 f1db a039 7763 1d39 ba93 8039

exp_avg f4 [10, 16]
-0.009151493 -0.053891473 -0.013490499 -6e-45 -0.013529754 -0.010991918 0.00025036957 -0.031076098
-0.035524767 -0.00021214127 -0.07062603 6e-45 -0.03412351 -0.014651214 -0.014741717 -0.002771312
0.0017136041 0.0017270716 0.004161574 6e-45 -0.0037194963 0.0010158268 0.0038385915 0.0048318678
0.0018868048 0.0036887985 0.0029021148 6e-45 0.0013151773 0.0034147438 0.0043724743 0.007884689
0.005952848 0.019334797 -0.007104891 6e-45 0.023627548 0.0056638066 0.0076634437 0.055046603
0.017855251 0.015016805 0.0071764938 -6e-45 0.035965893 0.03777894 0.016435139 0.0044508036
0.02626585 0.0031405415 0.0008009803 -6e-45 -0.0060661878 0.009130229 0.012478397 -0.008502026
0.007845707 -0.011727069 0.031864524 6e-45 0.0065789777 -0.017792469 -0.013729683 0.013810742
0.011148645 0.020342909 -0.020839486 6e-45 0.0069575566 0.012159211 -0.0069971513 0.0033809082
0.014090888 -0.0014430545 0.02057733 6e-45 0.001486321 -0.0095664235 0.000857529 -0.01759433
0.002778861 -0.00444878 0.00510994 6e-45 0.0023983503 -2.551612e-05 0.0058103357 0.013812707
0.013099177 -0.0045003854 0.009748764 6e-45 0.0074830167 0.00020952705 -0.0019604117 -0.009348323
0.00031656315 0.009946927 -0.00051717524 6e-45 0.002365195 0.0006653276 -0.007361117 -0.005323499
-0.0039186147 5.2637966e-05 -0.0017773864 6e-45 0.0018047233 -0.0033204663 -0.00050616026 -0.0019082613
-0.011681796 -0.018602138 -0.014385146 -6e-45 -0.008143669 -0.003644762 -0.009391266 -0.027234897
-0.008557436 -0.0016234302 -0.0051315855 6e-45 -0.012799483 -0.014123718 -0.00282987 -0.015075205
-0.028573114 0.00080250175 0.020979455 6e-45 0.0065682973 -0.0009038755 -0.007450953 -0.019154629
-0.009709395 -0.000100258505 -0.011007397 6e-45 -0.03060835 0.0059336848 0.008617104 -0.0020385492
0.0012300631 0.02164767 0.025285274 6e-45 -0.01045776 -0.01306831 0.0011593582 0.014219143
0.0029324107 0.00084810785 0.016273247 6e-45 0.022897307 0.01211745 0.0034855932 0.022589814
00000000: 25f0 15bc 4ebd 5cbd 4107 5dbc 0400 0080
00000010: e7ab 5dbc 7217 34bc 0944 8339 4d93 febc
00000020: 6b82 11bd 3d72 5eb9 61a4 90bd 0400 0000
00000030: 18c5 0bbd a50b 70bc 3e87 71bc e69e 35bb
00000040: 039b e03a e85e e23a d05d 883b 0400 0000
00000050: cbc2 73bb 7e25 853a e190 7b3b a554 9e3b
00000060: aa4e f73a c5bf 713b 6831 3e3b 0400 0000
00000070: 0762 ac3a e5c9 5f3b f946 8f3b c82e 013c
00000080: 1c10 c33b 0264 9e3c 25d0 e8bb 0400 0000
00000090: 8f8e c13c 7497 b93b a01d fb3b 8c78 613d
000000a0: 2d45 923c 0c09 763c cb28 eb3b 0400 0080
000000b0: f950 133d 17be 1a3d fca2 863c 0cd8 913b
000000c0: 7b2b d73c 8bd1 4d3b e1f8 513a 0400 0080
000000d0: dfc6 c6bb f596 153c 3172 4c3c 154c 0bbc
000000e0: 488b 003c e422 40bc 6084 023d 0400 0000
000000f0: 7794 d73b 83c1 91bc 77f2 60bc 7346 623c
00000100: cea8 363c 2ca6 a63c 92b7 aabc 0400 0000
00000110: 37fc e33b 6d37 473c 5c48 e5bb 3a92 5d3b
00000120: 78dd 663c e024 bdba ca91 a83c 0400 0000
00000130: a8d0 c23a 7dbc 1cbc cccb 603a fc21 90bc
00000140: 8d1d 363b 12c7 91bb 4971 a73b 0400 0000
00000150: a42d 1d3b 730b d6b7 a164 be3b b14e 623c
00000160: ee9d 563c f877 93bb 48b9 1f3c 0400 0000
00000170: 1834 f53b 7db4 5b39 407a 00bb b529 19bc
00000180: 63f8 a539 70f8 223c 0b93 07ba 0400 0000
00000190: 6301 1b3b 6169 2e3a 8635 f1bb bf70 aebb
000001a0: b967 80bb 96c7 5c38 31f7 e8ba 0400 0000
000001b0: 778c ec3a 2e9c 59bb d7af 04ba a01e faba
000001c0: 0165 3fbc 8363 98bc adaf 6bbc 0400 0080
000001d0: 066d 05bc f6dc 6ebb d3dd 19bc b81b dfbc
000001e0: 7d34 0cbc 47c9 d4ba dc26 a8bb 0400 0000
000001f0: ecb4 51bc 2b67 67bc 5775 39bb fefd 76bc
00000200: 2a12 eabc fb5e 523a 1bdd ab3c 0400 0000
00000210: df3a d73b 0ff2 6cba 2027 f4bb 2bea 9cbc
00000220: 2714 1fbc e041 d2b8 5f58 34bc 0400 0000
00000230: 5dbe fabc 5b6f c23b c12e 0d3c 2e99 05bb
00000240: 123a a13a 7456 b13c 1023 cf3c 0400 0000
00000250: 0657 2bbc 771c 56bc 9bf5 973a 69f7 683c
00000260: b02d 403b 8e53 5e3a 794f 853c 0400 0000
00000270: 2293 bb3c 4588 463c 8d6e 643b 460e b93c

exp_avg_sq f4 [10, 16]
0.00094487536 0.0049661547 0.0017270832 5.61285e-14 0.001952598 0.0007015007 0.00023435245 0.005497537
0.009509405 7.177631e-05 0.01667651 6.29593e-13 0.007950133 0.00837496 0.0018776598 0.0020187753
0.0012495223 0.00032418905 0.0010447452 1.897866e-15 0.010796817 0.0017952941 0.003634197 0.012738456
0.0013307544 0.0016231297 0.0047594747 3.1275692e-14 0.0007271367 0.0060686283 0.0023808961 0.012978452
0.009404349 0.0031313342 0.0029644258 1.5914441e-15 0.018801298 0.0067528095 0.0006101166 0.019782733
0.0052781836 0.008660131 0.025373848 3.082547e-14 0.017091755 0.030196749 0.006045319 0.012219748
0.0085681835 0.001129019 0.003864864 2.2025717e-15 0.011004424 0.0021212155 0.002448738 0.0152382115
0.0063442793 0.0042437864 0.023315437 5.4351353e-14 0.023748547 0.036973182 0.0068892394 0.037063576
0.0038587598 0.008153993 0.015660353 3.3577182e-15 0.0015542711 0.0066940654 0.004250299 0.01579925
0.0019462638 0.00015870883 0.015603738 7.044692e-14 0.021486357 0.00022981914 0.0038841902 0.011337834
0.001241542 0.0009478224 0.008377598 1.8697558e-15 0.0046101804 0.0015332832 0.0072257025 0.0041780276
0.011714809 0.0011390276 0.033962827 2.4993797e-15 0.015705846 0.021874636 0.006614504 0.021703765
0.0010520256 0.0044758753 0.0006210767 1.5355611e-15 0.006264437 0.001464978 0.004489735 0.0062188026
0.0025391476 0.00035186173 0.025267933 1.1357411e-14 0.009646755 0.0026161198 0.0055327443 0.0009781531
0.0025298647 0.007406775 0.014250254 1.1681012e-15 0.003326445 0.0007173323 0.0011888536 0.017028166
0.0061841854 0.0065657166 0.0029205654 1.7818755e-15 0.01707093 0.010572827 0.0013753647 0.02438957
0.0032536106 0.0013013092 0.014400454 1.3257382e-15 0.018151551 0.0022737426 0.00679104 0.027197003
0.010676817 0.0015157514 0.04413713 4.283829e-15 0.023592819 0.021594875 0.001868753 0.03225417
0.001212218 0.009001857 0.023610111 3.33879e-15 0.0015548671 0.0037289772 0.0046754316 0.022828365
0.006933062 0.00022019401 0.013551221 3.152867e-14 0.036680963 0.011750882 0.00094871386 0.03061309
00000000: 83b1 773a 20bb a23b 4c5f e23a c1c7 7c29
00000010: 51ee ff3a eae4 373a 82bc 7539 af24 b43b
00000020: 56cd 1b3c 9d86 9638 2d9d 883c f536 312b
00000030: 4641 023c 2137 093c cf1b f63a 6e4d 043b
00000040: 03c7 a33a ebf7 a939 d5ef 883a 73c1 0827
00000050: 22e5 303c 1350 eb3a b52b 6e3b f5b4 503c
00000060: b56c ae3a 32bf d43a 5ef5 9b3b 6bda 0c29
00000070: 519d 3e3a 58db c63b cf08 1c3b 93a3 543c
00000080: b314 1a3c 1237 4d3b d046 423b ed59 e526
00000090: 2e05 9a3c ac46 dd3b 3bf0 1f3a 660f a23c
000000a0: 9df4 ac3b 39e3 0d3c d1dc cf3c 59d3 0a29
000000b0: 0204 8c3c 2c5f f73c d017 c63b 5735 483c
000000c0: 9161 0c3c 97fb 933a a849 7d3b 47b6 1e27
000000d0: e64b 343c 1704 0b3b 027b 203b b1a9 793c
000000e0: ace3 cf3b 760f 8b3b 0400 bf3c d8c6 7429
000000f0: 508c c23c 3171 173d 21bf e13b facf 173d
00000100: 3fe3 7c3b 5398 053c 244a 803c f8f2 7127
00000110: afb8 cb3a e459 db3b 1846 8b3b 6e6d 813c
00000120: c719 ff3a 146b 2639 d2a6 7f3c e2a1 9e29
00000130: 2804 b03c 9bfb 7039 e68d 7e3b 53c2 393c
00000140: 3dbb a23a 4977 783a 3142 093c e8ba 0627
00000150: ff10 973b 72f8 c83a 96c5 ec3b d6e7 883b
00000160: 78ef 3f3c 6d4b 953a 9b1c 0b3d 6b19 3427
00000170: 8ca9 803c 7032 b33c 7bbe d83b 18cc b13c
00000180: 1fe4 893a 5daa 923b c0cf 223a 354c dd26
00000190: e845 cd3b 8104 c03a a01e 933b 19c7 cb3b
000001a0: d467 263b 157a b839 b2fe ce3c d098 4c28
000001b0: 6c0d 1e3c 3573 2b3b 064c b53b 5f35 803a
000001c0: 16cc 253b 88b4 f23b e679 693c 5457 a826
000001d0: 7c00 5a3b 5b0b 3c3a 4fd3 9b3a a77e 8b3c
000001e0: b5a4 ca3b 3925 d73b f566 3f3b cd65 0027
000001f0: 56d8 8b3c a739 2d3c 9545 b43a a3cc c73c
00000200: 873a 553b b190 aa3a e2ef 6b3c 1b0f bf26
00000210: 90b2 943c 1203 153b 5f87 de3b 40cc de3c
00000220: d1ed 2e3c 2dac c63a 23c9 343d 5957 9a27
00000230: ba45 c13c bce7 b03c f2f0 f43a f31c 043d
00000240: 49e3 9e3a 867c 133c fe69 c13c ce95 7027
00000250: afcc cb3a db61 743b 5d34 993b 8d02 bb3c
00000260: bd2e e33b e1e3 6639 f105 5e3c 15fe 0d29
00000270: c73e 163d c586 403c 1cb3 783a 4ec8 fa3c

exp_avg f4 [10]
-0.0045906994 0.0014610982 0.0038494882 0.0012768024 -0.00032500923 0.0007736745 -0.00032503656 -0.0030329088
-0.0010352875 0.0019478868
00000000: 946d 96bb 5282 bf3a b247 7c3b 615a a73a
00000010: 0066 aab9 6bd0 4a3a ab69 aab9 c4c3 46bb
00000020: 7cb2 87ba 3c50 ff3a

exp_avg_sq f4 [10]
0.00012309101 0.0001493538 0.0002844621 0.00034939605 0.00025022618 0.0003011026 0.00014753215 0.00023467842
0.00036358117 0.00033842443
00000000: fe11 0139 db9b 1c39 db23 9539 252f b739
00000010: ca30 8339 4fdd 9d39 dcb2 1a39 0214 7639
00000020: 0a9f be39 8f6e b139
